AutogluonModels/ag-20250424_211524/models/NeuralNetFastAI_BAG_L1/S1F2/model-internals.pkl (torch, 202836 bytes, 16 tensors)

weight f4 [9]
1.1970127 1.244592 1.4221495 1.1220143 0.24107121 0.52564293 0.20695288 0.42865708
0.46475282
00000000: b637 993f ca4e 9f3f ff08 b63f 2a9e 8f3f
00000010: 5fdb 763e 8990 063f 75eb 533e f178 db3e
00000020: 15f4 ed3e

bias f4 [9]
0.4674863 0.14546005 0.109738804 0.46311727 -0.15744348 -0.017324945 -0.023423927 0.20229827
0.39451215
00000000: 5d5a ef3e 7bf3 143e bdbe e03d b51d ed3e
00000010: dd38 21be 0bed 8dbc 89e3 bfbc 4727 4f3e
00000020: 7ffd c93e

running_mean f4 [9]
-0.011705578 -0.008437344 0.009690282 0.012927658 -0.0018414198 0.00042873636 -0.005870334 -0.023424914
-0.023718791
00000000: c1c8 3fbc c93c 0abc fdc3 1e3c 87ce 533c
00000010: cc5b f1ba 05c8 e039 ee5b c0bb 9be5 bfbc
00000020: e94d c2bc

running_var f4 [9]
0.97791195 1.0145124 1.0525275 1.0375626 0.9804325 0.99895996 0.9993823 0.9730928
0.9706805
00000000: 7058 7a3f 8bdb 813f 39b9 863f dace 843f
00000010: a0fd 7a3f d7bb 7f3f 85d7 7f3f 9c1c 793f
00000020: 847e 783f

weight f4 [200, 9]
-0.019636368 0.06415773 -1.260623 -0.2122249 -0.042679217 0.024801446 0.011663261 0.041912526
-0.026558025 0.2720911 -0.38403592 -0.03310007 -0.2401528 -0.17941321 -0.15887146 -0.0031425538
0.10046803 0.116381206 -0.70166373 -0.49163467 0.02318485 0.18044734 -0.011214601 0.24446842
0.042548884 0.014125019 -0.0015949546 -0.76037836 -0.05581574 -0.014730596 -0.63695437 0.31450006
-0.06899848 -0.051116776 -0.28345263 -0.39729112 -0.42510706 0.22723332 0.041204162 0.0039102444
-0.15150954 -0.26834363 0.012846074 -0.3889931 -0.27814767 -0.4736469 0.1996891 0.1042707
-0.1286354 -0.030594984 0.19955038 0.37310314 0.043463863 0.06280462 0.22974451 -0.4832512
0.07980375 -0.12493222 -0.13601239 -0.051880162 0.053076953 0.21870266 -0.11407901 0.012891661
0.21416293 0.040987864 -0.066105336 0.054450363 0.062646374 0.37182793 -0.30361122 -0.16578417
0.059345126 0.38468054 0.41896746 0.17626226 0.05122962 -0.20796935 0.03684758 -0.16236942
-0.30108684 0.3302447 0.16273284 -0.48004225 0.0761303 0.02039201 0.04169105 -0.21474922
0.14901237 -0.04230067 -0.00070800073 0.18824778 0.25070253 0.09043256 -0.26709038 -0.13141611
0.368597 0.16036339 -0.31105253 -0.4621681 0.18032207 0.004391203 -0.55805385 -0.263044
-0.27136722 0.035020445 -0.31491423 -0.30126822 -0.10541026 0.13671072 -0.41480544 0.17571391
-0.20520863 0.24445699 0.16248274 -0.33179873 -0.12542135 -0.1308999 0.14200358 0.09333272
0.069665186 0.041005515 -0.15775561 0.14101817 -0.31551626 -0.22592722 0.033105902 -0.70741856
0.027937315 -0.158117 -0.03279022 0.0135588 -0.2309927 0.016906265 0.16930601 0.05250546
0.09840235 -0.1371653 0.17236868 0.24380496 0.33893445 0.14299151 0.3401039 0.11261869
-0.97087276 -0.116043404 0.05666511 -0.48343349 -0.17314225 -0.20889151 -0.121832535 -0.3604551
-0.22921552 0.10976602 0.10761812 -1.0084465 0.06499769 -0.29656973 -0.09211895 0.027072353
-0.24495456 -0.17674854 -0.6038757 -0.57122004 0.013982363 0.13904776 -0.030078916 0.12436454
-0.14559302 -0.017189834 0.16338654 -0.27533847 0.23439965 -0.025148325 -0.5826513 0.09844654
-0.1927196 -0.012418066 0.06279581 -0.3005666 0.11528957 -0.12904364 0.11288851 0.12198187
0.21265367 0.13514331 -0.13533393 0.11986637 -0.25228345 0.11021798 0.29889342 0.21563506
-0.31460598 -0.033161968 -0.18035851 -0.3245465 -0.19311805 0.030731674 -0.2818003 0.053891573
0.06572934 0.26555035 -0.1863321 -0.16226201 -0.22563484 0.20985185 -0.19361624 0.42235717
0.07569643 0.026587756 -0.036396183 0.12035778 0.05661812 0.033182155 0.018739084 0.060975976
-0.31591186 -0.3977374 0.114660345 -0.044901494 0.097925484 0.34131682 0.09624709 0.01605213
-0.41049534 0.10473206 -0.9113699 0.007389888 -0.09929202 -0.13202196 0.00048319725 0.10859915
0.08376253 0.07645921 0.0628022 -0.7280139 0.05387819 -0.19665451 -0.101507396 0.10044018
0.028568747 0.23664653 -0.2659031 -0.0489567 0.13672361 -0.42213333 0.24777617 -0.1861345
0.06895193 0.03687562 -0.21484834 -0.02352331 0.24355221 -0.30360818 -0.060370374 -0.122034825
00000000: 73dc a0bc 2165 833d 185c a1bf 7c51 59be
00000010: 67d0 2ebd 672c cb3c 4317 3f3c 78ac 2b3d
00000020: 3790 d9bc 864f 8b3e 5ba0 c4be f093 07bd
00000030: 9eea 75be 19b8 37be 33af 22be 4ef3 4dbb
00000040: 2fc2 cd3d 4559 ee3d 3ca0 33bf 8ab7 fbbe
00000050: 28ee bd3c 30c7 383e 72bd 37bc ee55 7a3e
00000060: bd47 2e3d a06c 673c cc0d d1ba 28a8 42bf
00000070: 0c9f 64bd 9958 71bc 710f 23bf 2706 a13e
00000080: 134f 8dbd d35f 51bd b420 91be be69 cbbe
00000090: a2a7 d9be daaf 683e b2c5 283d 8221 803b
000000a0: 5125 1bbe 5664 89be 5778 523c 1b2a c7be
000000b0: 5f69 8ebe d981 f2be 4d7b 4c3e e08b d53d
000000c0: 00b9 03be 55a2 fabc ef56 4c3e 6007 bf3e
000000d0: 2a07 323d b59f 803d 2542 6b3e b46c f7be
000000e0: 2670 a33d 77dc ffbd d546 0bbe 4b80 54bd
000000f0: 3867 593d 97f3 5f3e 42a2 e9bd 8c37 533c
00000100: 874d 5b3e e4e2 273d 3c62 87bd 5807 5f3d
00000110: be4c 803d 3b60 be3e ee72 9bbe 53c3 29be
00000120: e013 733d d9f4 c43e e782 d63e 187e 343e
00000130: 26d6 513d ebf5 54be 7ded 163d 2b44 26be
00000140: 0e28 9abe d515 a93e 70a3 263e 19c8 f5be
00000150: 34ea 9b3d 250d a73c 3cc4 2a3d 38e7 5bbe
00000160: b396 183e 7843 2dbd 2099 39ba 07c4 403e
00000170: 155c 803e b534 b93d 12c0 88be f291 06be
00000180: bfb8 bc3e 4d36 243e 4742 9fbe 4ca1 ecbe
00000190: 59a6 383e 15e4 8f3b 9edc 0ebf b4ad 86be
000001a0: a5f0 8abe 9971 0f3d 703c a1be d43f 9abe
000001b0: 56e1 d7bd e5fd 0b3e 6161 d4be 59ee 333e
000001c0: 3622 52be ef52 7a3e e061 263e 86e1 a9be
000001d0: 746e 00be a00a 06be 6369 113e 3a25 bf3d
000001e0: 9fac 8e3d 66f5 273d b08a 21be 1167 103e
000001f0: 598b a1be 7759 67be 0e9a 073d 6219 35bf
00000200: ccdc e43c 6ce9 21be 0a4f 06bd bb25 5e3c
00000210: 5a89 6cbe 027f 8a3c 8e5e 2d3e f70f 573d
00000220: 2c87 c93d 0f75 0cbe 6a81 303e 02a8 793e
00000230: d188 ad3e 5e6c 123e 1922 ae3e a1a4 e63d
00000240: 1e8b 78bf 2aa8 edbd ad19 683d 9884 f7be
00000250: 344c 31be a8e7 55be 5683 f9bd 928d b8be
00000260: 79b7 6abe 02cd e03d e466 dc3d c614 81bf
00000270: 821d 853d fdd7 97be dca8 bcbd d7c6 dd3c
00000280: 5ed5 7abe 92fd 34be 9997 1abf 7a3b 12bf
00000290: 4816 653c 8962 0e3e 0f68 f6bc d6b2 fe3d
000002a0: 5616 15be b2d1 8cbc cd4e 273e 2af9 8cbe
000002b0: 7606 703e dc03 cebc a328 15bf 579e c93d
000002c0: 4958 45be 2575 4bbc 179b 803d dee3 99be
000002d0: f01c ec3d 0424 04be 1732 e73d a1d1 f93d
000002e0: e2c1 593e 0263 0a3e fa94 0abe 807c f53d
000002f0: 4c2b 81be f7b9 e13d 8f08 993e 70cf 5c3e
00000300: 0914 a1be d8d4 07bd e7af 38be f52a a6be
00000310: bdc0 45be fec0 fb3c 2148 90be 69bd 5c3d
00000320: 1b9d 863d 37f6 873e d8cd 3ebe 0328 26be
00000330: d20c 67be 67e3 563e 5643 46be 333f d83e
00000340: bb06 9b3d 91ce d93c 2a14 15bd 247e f63d
00000350: 67e8 673d 03ea 073d b582 993c f2c1 793d
00000360: 33bf a1be 3da4 cbbe 0bd3 ea3d a1ea 37bd
00000370: 288d c83d 14c1 ae3e 321d c53d c27f 833c
00000380: 722c d2be c37d d63d 8a4f 69bf e026 f23b
00000390: 9d59 cbbd c430 07be a355 fd39 3b69 de3d
000003a0: b08b ab3d a596 9c3d 719e 803d 1e5f 3abf
000003b0: 61af 5c3d cd5f 49be 1ce3 cfbd 95b3 cd3d
000003c0: 0109 ea3c 7853 723e 7324 88be d286 48bd
000003d0: 4601 0c3e dc21 d8be 09b9 7d3e 0b9a 3ebe
000003e0: ab36 8d3d e40a 173d 3401 5cbe f5b3 c0bc
000003f0: c065 793e 8872 9bbe ed46 77bd 65ed f9bd

weight f4 [200]
1.228154 0.98887324 1.2600528 1.0331484 0.92019224 0.8766339 1.0560403 0.798363
0.8690021 0.92525446 0.9094585 0.9888373 0.9683476 0.7791129 0.8646281 0.67979
0.8954942 1.2056059 1.0580074 0.9743946 0.5347074 0.91729695 0.8084941 0.94056875
1.0487204 1.1278869 1.2701396 1.115086 0.9882904 0.8223371 0.9301293 0.8640835
1.0666162 1.0657085 0.92239827 1.1246622 0.7788247 0.89638084 0.94534963 0.93277776
1.1419507 0.82968414 1.0466002 0.7996909 1.0906539 1.0364563 1.0151485 1.0236962
1.0417815 0.9877353 0.79674697 1.1685675 1.1644714 1.0670006 0.64779294 0.9816886
1.0404253 0.8520095 1.0468383 1.2481673 1.01442 1.1948329 0.92366225 0.99361795
1.1315117 0.82669693 0.84387875 0.9497639 0.9700559 1.1149149 0.9436401 0.9201234
0.8219513 1.1194787 1.0001221 0.87476623 0.9765951 0.96204627 0.9347185 0.96940124
1.0174694 0.7472082 1.013314 0.9614276 0.78482896 1.1101981 0.9496239 1.3297145
0.9982898 0.8027398 1.0299087 1.0149056 0.7868854 1.12173 0.89293534 1.018645
1.220625 0.99875426 1.0102284 1.0331458 0.8433971 0.6556584 0.90091467 1.0116475
1.0424104 0.83851296 0.98975646 1.4410862 0.94012666 0.9507824 1.0917002 0.8730998
0.7973232 0.88737243 1.0666399 0.86049294 0.8377432 1.009878 0.9677082 0.9676686
0.88052535 0.861204 0.91125554 1.1467035 0.7752206 0.8682165 0.662858 0.9801267
1.0141366 1.4134808 1.3548509 0.9399929 0.9857701 0.8843562 0.96152425 1.1560584
0.96301687 0.9188948 1.1263047 0.99044037 0.8695768 1.0601739 0.8734893 1.0459846
0.9564159 1.071516 1.347331 1.0103577 0.90444195 0.7960844 0.9718944 0.9426565
1.416888 0.92911816 0.8649106 0.98140365 0.6758226 0.75233024 0.66791594 0.64267486
1.1583387 0.9290656 0.96835697 0.9960331 0.9678043 0.9297847 1.0135297 0.59393394
1.1340947 0.8792536 0.9550939 0.81601834 0.9292104 1.1366649 0.82969296 1.2467164
0.8746158 0.95536804 1.001296 1.1221609 0.9345792 0.9096003 0.8587683 0.83234596
1.005702 0.7918023 0.7074043 1.073841 0.7199562 1.0999222 0.95655483 1.2804163
0.97874767 1.0372728 0.9823439 0.9352807 0.90900517 0.8556493 0.73053426 0.8938403
00000000: 2634 9d3f cc26 7d3f 6949 a13f 353e 843f
00000010: b891 6b3f 146b 603f 542c 873f 8461 4c3f
00000020: ec76 5e3f 7add 6c3f 46d2 683f 7124 7d3f
00000030: a1e5 773f f173 473f 4458 5d3f b806 2e3f
00000040: 1c3f 653f 4b51 9a3f c96c 873f ed71 793f
00000050: 96e2 083f f9d3 6a3f 78f9 4e3f 1dc9 703f
00000060: 783c 863f 995e 903f ef93 a23f 23bb 8e3f
00000070: 9a00 7d3f af84 523f f41c 6e3f 9434 5d3f
00000080: e186 883f 2369 883f 4b22 6c3f eef4 8f3f
00000090: 0e61 473f 3779 653f 6f02 723f 86ca 6e3f
000000a0: 712b 923f 2e66 543f fff6 853f 8bb8 4c3f
000000b0: 8c9a 8b3f 9aaa 843f 63f0 813f 7a08 833f
000000c0: 1959 853f 38dc 7c3f 9cf7 4b3f 9f93 953f
000000d0: 660d 953f 7a93 883f c2d5 253f f24f 7b3f
000000e0: a82c 853f 4b1d 5a3f ccfe 853f f2c3 9f3f
000000f0: 84d8 813f 49f0 983f 2175 6c3f bf5d 7e3f
00000100: 60d5 903f 69a2 533f 7008 583f ba23 733f
00000110: 9555 783f 88b5 8e3f 6692 713f 358d 6b3f
00000120: 676b 523f 144b 8f3f 0004 803f aef0 5f3f
00000130: 2302 7a3f aa48 763f b649 6f3f ae2a 783f
00000140: 703c 823f 0949 3f3f 46b4 813f 1f20 763f
00000150: 8dea 483f f91a 8e3f 8d1a 733f 1634 aa3f
00000160: ec8f 7f3f 5b80 4d3f 0cd4 833f 6de8 813f
00000170: 5271 493f d994 8f3f 6997 643f f662 823f
00000180: 713d 9c3f 5cae 7f3f 2a4f 813f 1f3e 843f
00000190: dfe8 573f 3bd9 273f 58a2 663f aa7d 813f
000001a0: b46d 853f c9a8 563f ae60 7d3f 8375 b83f
000001b0: 24ac 703f 7a66 733f d5bc 8b3f 7883 5f3f
000001c0: 601d 4c3f d72a 633f a887 883f 4449 5c3f
000001d0: 5776 563f af43 813f b9bb 773f 21b9 773f
000001e0: 1c6a 613f de77 5c3f 0b48 693f 2ec7 923f
000001f0: db74 463f 7043 5e3f 10b1 293f 95e9 7a3f
00000200: 3acf 813f f0ec b43f c16b ad3f 60a3 703f
00000210: 6e5b 7c3f 2b65 623f 7426 763f b9f9 933f
00000220: 4688 763f b13c 6b3f c12a 903f 808d 7d3f
00000230: 969c 5e3f c7b3 873f ff9c 5f3f d3e2 853f
00000240: acd7 743f 7027 893f 5875 ac3f 6753 813f
00000250: 8289 673f 30cc 4b3f 12ce 783f f051 713f
00000260: 965c b53f b0da 6d3f c86a 5d3f 453d 7b3f
00000270: b602 2d3f b798 403f 8afc 2a3f 5786 243f
00000280: 7144 943f 3ed7 6d3f 3ee6 773f 06fc 7e3f
00000290: 06c2 773f 5f06 6e3f 57bb 813f 0e0c 183f
000002a0: 042a 913f c416 613f 0981 743f 94e6 503f
000002b0: bce0 6d3f 3c7e 913f c266 543f 6794 9f3f
000002c0: d2e6 5f3f 0093 743f 782a 803f f8a2 8f3f
000002d0: 9540 6f3f 91db 683f 3dd8 5b3f a014 553f
000002e0: d8ba 803f 8eb3 4a3f 7318 353f 9f73 893f
000002f0: 0d4f 383f 40ca 8c3f c7e0 743f aee4 a33f
00000300: 358f 7a3f 5bc5 843f e47a 7b3f 8e6e 6f3f
00000310: 90b4 683f d50b 5b3f 4b04 3b3f b8d2 643f

bias f4 [200]
-0.0893567 0.06130506 0.23288216 -0.46462557 0.21506871 0.1844528 0.036969773 0.5084226
0.34206575 -0.05928916 0.2079551 -0.08418716 0.34003612 0.20555387 0.00714448 0.2557724
0.074546546 0.16854444 -0.07619415 0.20814434 0.45330966 0.24097516 0.31665942 0.07167059
0.069400854 0.08605018 -0.007246484 0.13549836 0.052616347 0.11960426 0.0040550632 0.22051433
-0.010644314 -0.18085328 0.17946866 0.13526303 0.3176077 0.26786613 -0.10780966 0.020558473
0.21547532 0.08381499 -0.051060185 0.45071268 -0.20749575 0.25838768 0.06243666 0.03383463
0.050737925 -0.56874526 0.34445685 0.16962326 0.23332965 -0.05872846 0.5646951 0.07412064
0.22950383 0.2352183 0.20069681 -0.0039049145 -0.08886131 0.077773176 0.28448305 -0.021630289
5.3227923e-05 0.45512608 0.07575651 0.22518826 0.5779181 0.10473667 0.6185377 0.16972013
0.13684402 0.14881195 -0.056168817 0.026606454 0.31813276 -0.3074848 0.09906251 0.15496938
0.17027038 -0.04749478 0.27615353 -0.21675615 -0.08687699 0.11706894 0.3181981 0.020974217
0.16522707 -0.005963783 -0.07789777 -0.033830702 0.054640196 -0.04240035 -0.10630165 0.07883364
-0.0035996577 0.09815607 0.36032295 0.2500414 0.3686943 0.36150476 -0.23015219 0.21641877
-0.10854146 -0.073239625 0.09030267 0.023052847 0.07147273 -0.081211165 0.5266055 -0.12393189
0.033586014 0.14703181 -0.08500874 -0.49585718 0.07648171 0.1587715 0.26575375 0.059243336
0.21441631 -0.24316335 0.30417246 -0.3191917 -0.08211892 -0.06624628 -0.019229978 0.06592371
0.033376027 -0.10147641 -0.17268723 -0.17129698 0.14959861 0.20017692 0.063515715 -0.1435622
-0.026908906 0.105983354 -0.074346006 -0.19166881 0.13929626 0.21112566 0.16474332 0.55749977
0.10214797 -0.018014038 -0.10564715 -0.25732672 0.19249532 -0.08123777 0.06068529 0.40426883
0.12057999 -0.2658084 0.01295672 0.06251786 0.292202 0.4407138 -0.21648282 0.08191204
-0.26222953 0.034047734 -0.02329031 0.34703118 0.10864706 -0.020580247 0.03414832 0.36138454
-0.2759427 0.12685843 0.29699364 0.37044916 0.17825031 -0.009885619 -0.057570957 -0.055312585
0.35543624 0.17921272 0.1352593 0.09479684 0.4090189 0.283199 -0.037012044 -0.034800086
0.15867008 0.11345789 0.083188996 -0.12148221 0.16612802 0.02799585 0.19839855 -0.005457014
0.13431479 0.11751978 0.21406852 -0.6356186 0.1673664 0.19003747 -0.118377365 0.056591872
00000000: a500 b7bd 041b 7b3d a978 6e3e 67e3 edbe
00000010: f93a 5c3e 32e1 3c3e 9e6d 173d fc27 023f
00000020: 3e23 af3e 31d9 72bd 2ff2 543e 516a acbd
00000030: 3719 ae3e b77c 523e 3e1c ea3b 9af4 823e
00000040: dcab 983d ea96 2c3e ae0b 9cbd ca23 553e
00000050: 3418 e83e 31c2 763e 2f21 a23e 08c8 923d
00000060: 0922 8e3d 143b b03d ea73 edbb 15c0 0a3e
00000070: 3d84 573d 14f3 f43d 56e0 843b 82ce 613e
00000080: 7d65 2ebc 9a31 39be a2c6 373e 6482 0a3e
00000090: 7a9d a23e c025 893e 50cb dcbd 3e6a a83c
000000a0: 90a5 5c3e 32a7 ab3d 7c24 51bd d0c3 e63e
000000b0: c479 54be 644b 843e 95bd 7f3d 2e96 0a3d
000000c0: 92d2 4f3d 4a99 11bf a65c b03e b8b1 2d3e
000000d0: f8ed 6e3e 418d 70bd dc8f 103f 90cc 973d
000000e0: 0d03 6b3e 11dd 703e 7783 4d3e 98e9 7fbb
000000f0: ebfc b5bd 8b47 9f3d c3a7 913e 0132 b1bc
00000100: 0c41 5f38 4906 e93e 3b26 9b3d c097 663e
00000110: 71f2 133f 2e80 d63d 7d58 1e3f 1dcb 2d3e
00000120: d720 0c3e 2962 183e 4611 66bd c7f5 d93c
00000130: 4ce2 a23e a66e 9dbe 49e1 ca3d 4bb0 1e3e
00000140: 5c5b 2e3e e389 42bd ff63 8d3e 53f5 5dbe
00000150: 90ec b1bd d7c1 ef3d ddea a23e 1fd2 ab3c
00000160: 4931 293e d66b c3bb de88 9fbd 1092 0abd
00000170: 66ce 5f3d fdab 2dbd aeb4 d9bd 8873 a13d
00000180: 3ce8 6bbb 0d06 c93d 407c b83e 6d05 803e
00000190: 80c5 bc3e 2717 b93e 04ad 6bbe e29c 5d3e
000001a0: fc4a debd a8fe 95bd 9bf0 b83d 53d9 bc3c
000001b0: 4b60 923d 0a52 a6bd 9ecf 063f 01d0 fdbd
000001c0: 7d91 093d 828f 163e 1019 aebd fee0 fdbe
000001d0: 71a2 9c3d ff94 223e e010 883e 24a9 723d
000001e0: f38f 5b3e d0ff 78be 7ebc 9b3e 186d a3be
000001f0: f72d a8bd 21ac 87bd 3088 9dbc 0303 873d
00000200: 4db5 083d ddd2 cfbd ecd4 30be 7a68 2fbe
00000210: 6130 193e 2efb 4c3e 8714 823d f801 13be
00000220: 1170 dcbc cd0d d93d b842 98bd d444 44be
00000230: aea3 0e3e 5331 583e 79b2 283e 4eb8 0e3f
00000240: f432 d13d 2d92 93bc 885d d8bd 54c0 83be
00000250: 7e1d 453e fd5f a6bd 2391 783d 53fc ce3e
00000260: a4f2 f63d 0a18 88be 6c48 543c 5d09 803d
00000270: 809b 953e 3da5 e13e acad 5dbe 80c1 a73d
00000280: f342 86be a375 0b3d 52cb bebc 12ae b13e
00000290: 5a82 de3d e897 a8bc 1cdf 0b3d 6507 b93e
000002a0: 5d48 8dbe 2de7 013e 8d0f 983e 83ab bd3e
000002b0: 4087 363e 4bf7 21bc 86cf 6bbd 738f 62bd
000002c0: bdfb b53e 8a83 373e 6a81 0a3e d824 c23d
000002d0: ed6a d13e 76ff 903e f199 17bd 898a 0ebd
000002e0: 697a 223e 9c5c e83d fe5e aa3d aacb f8bd
000002f0: 771d 2a3e 8e57 e53c fd28 4b3e c0d0 b2bb
00000300: d189 093e 36ae f03d c734 5b3e e7b7 22bf
00000310: 1962 2b3e 2f99 423e d56f f2bd e1cc 673d

running_mean f4 [200]
0.20741461 0.30267188 0.2159238 0.09071621 0.17132372 0.15211135 0.27396303 0.0966468
0.3218072 0.3667338 0.19560556 0.20572594 0.1315571 0.106443994 0.29276347 0.2773893
0.17129785 0.24521804 0.24724272 0.15792081 0.114613384 0.2591632 0.1888512 0.25798416
0.0850506 0.4020453 0.24218634 0.19922327 0.1769509 0.36728615 0.10351516 0.21191908
0.16024351 0.09334372 0.13939248 0.23299973 0.30284193 0.29889685 0.5252695 0.27620867
0.16069385 0.33856007 0.38598436 0.315552 0.5791769 0.15983306 0.13891858 0.23378108
0.16826762 0.10476714 0.28189397 0.34347057 0.20644896 0.4197143 0.15579422 0.26152527
0.4178309 0.12852316 0.29285157 0.39364257 0.044856388 0.47595918 0.31018212 0.4459112
0.2727094 0.20714998 0.29150027 0.21208441 0.33745182 0.31938002 0.09951995 0.40571764
0.1411249 0.4321435 0.36265007 0.3376984 0.1311216 0.59732616 0.074224345 0.42625782
0.3144828 0.18500468 0.3664836 0.06360213 0.12755941 0.17809662 0.28519514 0.29838854
0.31232738 0.1780475 0.124703534 0.3485112 0.2873388 0.2503884 0.4072122 0.20951304
0.22409688 0.14279343 0.2623005 0.31904486 0.3042126 0.1055252 0.101797834 0.48292357
0.30506265 0.08360025 0.22744589 0.25644112 0.30178943 0.17516051 0.19200318 0.0686233
0.2431503 0.24260436 0.26333207 0.10185402 0.29706162 0.52892 0.23571746 0.34341472
0.27609143 0.09661295 0.060022954 0.07077607 0.1578096 0.39783835 0.1119782 0.16118279
0.07660124 0.23361401 0.15621607 0.2273794 0.46874234 0.15301569 0.19310383 0.101789206
0.31542888 0.2051654 0.49154708 0.61651474 0.18563025 0.376929 0.11434065 0.094739035
0.28623724 0.146422 0.19340241 0.12009284 0.14608262 0.24918237 0.43560076 0.21591917
0.18425564 0.54779094 0.36449996 0.20836201 0.19209659 0.18571082 0.028963132 0.16728014
0.1044363 0.32870892 0.15991007 0.03996723 0.22354704 0.40171483 0.113869265 0.048846655
0.30555317 0.32163596 0.3223005 0.06316617 0.11115929 0.21891457 0.28056735 0.20795034
0.12476246 0.20982988 0.2508424 0.13390125 0.45718503 0.42952272 0.23688294 0.3546733
0.2685825 0.20637648 0.21598434 0.14025751 0.42354134 0.17133336 0.21887873 0.09566908
0.258441 0.13278997 0.06963825 0.062212642 0.33557516 0.21946633 0.17575426 0.42746603
00000000: 7f64 543e cff7 9a3e 211b 5d3e 6cc9 b93d
00000010: 7c6f 2f3e 14c3 1b3e e244 8c3e c2ee c53d
00000020: eac3 a43e 88c4 bb3e d34c 483e d2a9 523e
00000030: e8b6 063e 4fff d93d 18e5 953e f805 8e3e
00000040: b468 2f3e 701a 7b3e 322d 7d3e feb5 213e
00000050: 6cba ea3d 0ab1 843e 3562 413e 8016 843e
00000060: 022f ae3d e2d8 cd3e b2ff 773e 2f01 4c3e
00000070: 9e32 353e ee0c bc3e c2ff d33d 5101 593e
00000080: e016 243e fe2a bf3d e7bc 0e3e 7b97 6e3e
00000090: 190e 9b3e 0209 993e 1078 063f 396b 8d3e
000000a0: ee8c 243e bf57 ad3e be9f c53e 0890 a13e
000000b0: f044 143f 47ab 233e ac40 0e3e 4f64 6f3e
000000c0: 594e 2c3e 2790 d63d 6854 903e 60db af3e
000000d0: 5b67 533e cbe4 d63e 8588 1f3e a4e6 853e
000000e0: efed d53e 939b 033e a4f0 953e 858b c93e
000000f0: 55bb 373d ecb0 f33e 31d0 9e3e 794e e43e
00000100: 91a0 8b3e 201f 543e 863f 953e a82c 593e
00000110: 7cc6 ac3e c785 a33e 1ed1 cb3d 39ba cf3e
00000120: 0c83 103e ea41 dd3e 45ad b93e cee6 ac3e
00000130: be44 063e 5eea 183f ef02 983d 773e da3e
00000140: e403 a13e de71 3d3e bda3 bb3e d541 823d
00000150: ef9e 023e f65e 363e 1905 923e 62c6 983e
00000160: 60e9 9f3e 1552 363e 9164 ff3d 0f70 b23e
00000170: 121e 933e e932 803e 1e7e d03e 968a 563e
00000180: a779 653e 7138 123e 404c 863e d959 a33e
00000190: c1c1 9b3e 991d d83d 627b d03d c241 f73e
000001a0: 2c31 9c3e 9c36 ab3d 93e7 683e 404c 833e
000001b0: 2584 9a3e 475d 333e 7b9c 443e 5f8a 8c3d
000001c0: 64fc 783e 476d 783e 76d3 863e d798 d03d
000001d0: 7618 983e 4d67 073f eb5f 713e 0ed4 af3e
000001e0: db5b 8d3e 03dd c53d a1da 753d 0bf3 903d
000001f0: d798 213e 78b1 cb3e d454 e53d 1a0d 253e
00000200: 1ce1 9c3d 8338 6f3e 1bf7 1f3e 25d6 683e
00000210: fffe ef3e 25b0 1c3e 03bd 453e dc76 d03d
00000220: e57f a13e e116 523e 0fac fb3e e9d3 1d3f
00000230: db15 3e3e d6fc c03e 6e2b ea3d 8a06 c23d
00000240: b08d 923e a6ef 153e 480b 463e 3cf3 f53d
00000250: af96 153e aa29 7f3e 1007 df3e ea19 5d3e
00000260: 83ad 3c3e 073c 0c3f bd9f ba3e da5c 553e
00000270: f8b4 443e fa2a 3e3e 1744 ed3c 7c4b 2b3e
00000280: b3e2 d53d 894c a83e 77bf 233e aeb4 233d
00000290: 84e9 643e 91ad cd3e 4a34 e93d 6e13 483d
000002a0: 7771 9c3e 78ad a43e 9204 a53e 445d 813d
000002b0: 7ba7 e33d 242b 603e 86a6 8f3e eff0 543e
000002c0: 7683 ff3d a5dd 563e 6a6e 803e 691d 093e
000002d0: 2814 ea3e 67ea db3e 7191 723e bd97 b53e
000002e0: a583 893e 5b54 533e 002b 5d3e aa9f 0f3e
000002f0: 69da d83e 0372 2f3e bf21 603e 27ee c33d
00000300: 6152 843e 18fa 073e 809e 8e3d afd2 7e3d
00000310: 82d0 ab3e c8bb 603e edf8 333e d4dc da3e

running_var f4 [200]
0.04123619 0.1525649 0.07332764 0.011675736 0.11187126 0.09328786 0.10841836 0.05174135
0.63583237 0.19877493 0.20306253 0.115947016 0.054487646 0.056113936 0.07509573 0.12328667
0.04652185 0.053297512 0.08010881 0.097772606 0.034787267 0.30891535 0.0706155 0.22389893
0.029734924 0.1287206 0.06770752 0.09401471 0.0688795 0.25284058 0.021425363 0.123864986
0.03385642 0.013651535 0.058546137 0.05660501 0.4606755 0.15433861 0.40612543 0.13874088
0.061484553 0.0996022 0.22125274 0.21063577 0.38117766 0.061971627 0.038560163 0.059586428
0.11257612 0.024281789 0.28403318 0.09307013 0.15738654 0.15330288 0.058483716 0.15685625
0.20404418 0.08355161 0.16537334 0.3886736 0.007738762 0.1959765 0.2420075 0.46335047
0.1504754 0.08360013 0.20888272 0.107309744 0.14771625 0.19951473 0.04948824 0.18226616
0.038190212 0.30655545 0.21805789 0.18321124 0.078039855 0.43529677 0.015108798 0.398638
0.15767954 0.2009815 0.11212221 0.014901239 0.05170548 0.058182545 0.18661433 0.06483085
0.2629898 0.10325068 0.030171145 0.18558267 0.23311688 0.070772484 0.18706673 0.06091633
0.06765702 0.087840654 0.27301115 0.26024157 0.5729329 0.073655 0.02349487 0.4617612
0.13467523 0.019049237 0.14846589 0.087840274 0.24990122 0.034419235 0.2073494 0.012508593
0.11976482 0.084739506 0.25174332 0.022723157 0.26234156 0.31001648 0.14883858 0.28911683
0.13768014 0.06272552 0.015432724 0.00937074 0.07816553 0.23005101 0.043513317 0.047970217
0.025628623 0.07089451 0.027002973 0.10930228 0.3626209 0.104805455 0.15018968 0.014024453
0.252058 0.07857109 0.18920971 0.5084781 0.14310317 0.28534606 0.044186026 0.039218184
0.12712242 0.043762486 0.035281043 0.068007626 0.087818615 0.21171242 0.3690812 0.3180835
0.03530221 0.37935054 0.2402371 0.09696777 0.21938 0.1171689 0.0052240337 0.062056515
0.019364892 0.2271685 0.06577918 0.008076731 0.10351825 0.26743114 0.024986753 0.0129010305
0.09679862 0.20222875 0.16668496 0.016772063 0.027252004 0.0742746 0.10333754 0.028322944
0.03710919 0.120455146 0.10576795 0.031717766 0.22377089 0.18469295 0.11811996 0.14545232
0.06329762 0.17326523 0.22361763 0.026410557 0.20301628 0.027094917 0.11336597 0.017391738
0.13622974 0.06922901 0.018790651 0.008716895 0.15348552 0.1167101 0.07457451 0.26604873
00000000: 47e7 283d f939 1c3e cd2c 963d 964b 3f3c
00000010: c21c e53d b50d bf3d 720a de3d bdee 533d
00000020: e9c5 223f a88b 4b3e a0ef 4f3e a175 ed3d
00000030: 702e 5f3d bad7 653d cacb 993d b97d fc3d
00000040: b28d 3e3d 7e4e 5a3d 1610 a43d 013d c83d
00000050: 187d 0e3d 272a 9e3e dc9e 903d c345 653e
00000060: a896 f33c 55cf 033e 3eaa 8a3d c98a c03d
00000070: b210 8d3d 5274 813e 3e84 af3c edac fd3d
00000080: 08ad 0a3d b0aa 5f3c 13ce 6f3d a8da 673d
00000090: a9dd eb3e f10a 1e3e acef cf3e 1712 0e3e
000000a0: 3ad7 7b3d 3dfc cb3d 1490 623e e7b0 573e
000000b0: b829 c33e f6d5 7d3d 43f1 1d3d e610 743d
000000c0: 4f8e e63d 9aea c63c cc6c 913e 8d9b be3d
000000d0: f029 213e 6efb 1c3e 9f8c 6f3d ed9e 203e
000000e0: f5f0 503e 1b1d ab3d a157 293e 3a00 c73e
000000f0: 7195 fd3b 10ae 483e d0d0 773e 463c ed3e
00000100: 3916 1a3e 8c36 ab3d 5ae5 553e 36c5 db3d
00000110: ee42 173e 974d 4c3e 2eb4 4a3d fba3 3a3e
00000120: 576d 1c3d d6f4 9c3e 914a 5f3e ba9b 3b3e
00000130: 5cd3 9f3d 38df de3e e48a 773c 481a cc3e
00000140: bf76 213e 18ce 4d3e 54a0 e53d 5424 743c
00000150: 20c9 533d d250 6e3d d417 3f3e 09c6 843d
00000160: 99a6 863e 1875 d33d 7a29 f73c 6209 3e3e
00000170: 31b6 6e3e 2af1 903d 6c8e 3f3e 6783 793d
00000180: c48f 8a3d cde5 b33d 1ec8 8b3e 623e 853e
00000190: bbab 123f 6fd8 963d 5078 c03c f76b ec3e
000001a0: 4ee8 093e 250d 9c3c 7107 183e 9ae5 b33d
000001b0: 1be6 7f3e 2ffb 0c3d 6753 543e d7f0 4c3c
000001c0: 4247 f53d e88b ad3d 80e4 803e ea25 ba3c
000001d0: a251 863e 7bba 9e3e 2469 183e 1f07 943e
000001e0: 06fc 0c3e 3d76 803d 89d9 7c3c bb87 193c
000001f0: 4015 a03d 7e92 6b3e 053b 323d 6b7c 443d
00000200: 1ef3 d13c 2431 913d 5735 dd3c e0d9 df3d
00000210: 72a9 b93e 3ea4 d63d 53cb 193e d2c6 653c
00000220: bf0d 813e e1e9 a03d 31c0 413e 9f2b 023f
00000230: a389 123e e118 923e 68fc 343d 3fa3 203d
00000240: 612c 023e 4b40 333d db82 103d 9547 8b3d
00000250: 3fda b33d 24cb 583e 36f8 bc3e d7db a23e
00000260: 0d99 103d 3c3a c23e b700 763e 0a97 c63d
00000270: 27a5 603e 40f6 ef3d 5f2e ab3b f92e 7e3d
00000280: 1fa3 9e3c dc9e 683e 3cb7 863d 4454 043c
00000290: 6001 d43d bcec 883e 05b1 cc3c d85e 533c
000002a0: 5b3e c63d 0e15 4f3e 76af 2a3e 9165 893c
000002b0: 983f df3c 481d 983d a2a2 d33d 8505 e83c
000002c0: ceff 173d 30b1 f63d de9c d83d 7dea 013d
000002d0: 3224 653e 2620 3d3e e1e8 f13d 74f1 143e
000002e0: 2fa2 813d 716c 313e 05fc 643e f45a d83c
000002f0: 80e3 4f3e 29f6 dd3c 6b2c e83d 1e79 8e3c
00000300: cf7f 0b3e f0c7 8d3d daee 993c 4fd1 0e3c
00000310: 4f2b 1d3e b405 ef3d 85ba 983d 8a37 883e

weight f4 [100, 200]
-0.07941372 0.04670092 -0.37584147 0.06411198 -0.10606052 -0.07446534 0.018365378 -0.026352173
-0.059366092 0.1113768 -0.19842586 0.009094795 0.066089846 0.0035490901 0.11350452 0.06691211
0.089631945 -0.016533451 -0.19389336 -0.104497366 -0.048262365 -0.020539654 -0.123088785 0.019448891
-0.1949385 0.059639648 -0.0007911242 0.10470368 0.046189018 0.065027475 -0.38023525 -0.022687055
-0.08407262 -0.00974537 -0.11802319 -0.011258225 0.030938122 0.09986227 0.07158791 0.065939955
-0.23968515 0.13434203 0.09697653 0.021103684 0.04355097 -0.091210194 -0.24392557 -0.025143033
0.10326869 -0.023447428 -0.05083128 -0.01926644 -0.030482925 0.042153005 -0.11275509 0.10199827
0.13501005 -0.006127383 0.13735369 0.18346079 -0.017327245 0.114718646 0.1341412 0.11601117
0.06565218 -0.11902849 0.06691405 0.042108383 0.05427888 0.049976915 0.06177217 0.07413318
0.037986968 0.14328822 0.018530095 0.010481742 0.004143211 0.016001556 -0.33989906 0.018520843
0.1363473 -0.09383676 0.0049762544 -0.24560966 0.0025672168 -0.22773598 0.087267764 0.046179216
0.015271414 -0.041107178 0.034457315 0.032729205 0.124887355 -0.03690456 0.06305037 -0.44448245
0.0012711999 0.18982416 -0.06562125 0.13329475 -0.003973403 -0.031140713 0.041171316 -0.12273035
0.09458006 0.2059895 0.05367197 -0.4942732 -0.0015942041 -0.16678354 -0.030397555 -0.075256236
0.14555845 -0.02291794 0.13689466 0.14955907 -0.020034933 0.10433584 -0.036077645 0.09290292
0.028085288 -0.010908304 0.12666124 0.0126807615 0.101220675 0.042009212 0.03229274 -0.24592088
-0.04580714 -0.22207288 -0.13302441 -0.15688327 0.079827756 -0.12560217 0.007301429 0.05039168
0.05050911 -0.03197069 -0.01053302 0.041912876 -0.09853801 0.10276527 -0.05606247 0.025933264
0.07752497 0.050156944 -0.054466426 0.055421084 0.049351737 0.0005462368 0.07090827 -0.024953026
-0.4384841 0.08045205 -0.020317256 -0.17949602 0.0039033988 -0.1168286 0.013587774 -0.033850286
0.022355244 -0.13734086 -0.20268041 0.17140615 -0.12225269 -0.01871214 -0.0781328 0.029647404
-0.089166075 0.014114236 0.06569787 -0.05790249 0.020980228 -0.27141532 0.06739962 -0.17694664
0.011452027 -0.04389539 0.072681 -0.11567715 0.031025581 0.035170086 -0.052225485 0.13319492
0.002984967 -0.025219543 -0.05442926 -0.2876455 0.11980123 -0.1568342 -0.030371139 -0.3129299
0.10067672 -0.01827973 -0.15590534 0.09255649 0.039592937 0.06694994 -0.003112209 0.07651483
0.019855592 0.030836808 -0.14332739 0.059524037 -0.02486543 -0.10685019 0.048591346 -0.038428124
-0.04332451 0.10520845 -0.16114444 0.088027135 -0.06522072 0.0062776245 0.03814108 0.0933214
0.02827339 -0.06958423 -0.1891509 -0.08262727 -0.10835542 -0.037810102 -0.07159884 0.0079325745
-0.040056203 0.07799371 0.06835533 -0.052560408 0.0403794 0.10338965 -0.2594781 0.131994
-0.13471776 -0.01603583 -0.113400176 0.007388133 0.019786742 -0.026328862 0.10631904 0.0429546
-0.14084157 0.052779615 0.1670614 0.0471756 0.12643625 -0.006328144 -0.018299293 -0.04632428
-0.029748732 0.023599617 -0.065222725 0.015193511 -0.118884474 0.037443593 -0.058356714 -0.06868571
00000000: a9a3 a2bd 7749 3f3d 4b6e c0be 244d 833d
00000010: 4236 d9bd 4981 98bd fd72 963c 83e0 d7bc
00000020: dc29 73bd 8519 e43d 2630 4bbe 5602 153c
00000030: 1d5a 873d da97 683b 0f75 e83d 3709 893d
00000040: f490 b73d 2971 87bc fb8b 46be b702 d6bd
00000050: c2ae 45bd c742 a8bc f915 fcbd 4853 9f3c
00000060: f59d 47be b448 743d 7263 4fba e26e d63d
00000070: b230 3d3d 202d 853d 32ae c2be 34da b9bc
00000080: 442e acbd 0bab 1fbc 24b6 f1bd 6b74 38bc
00000090: f271 fd3c 9784 cc3d af9c 923d 870b 873d
000000a0: 0670 75be f590 093e a29b c63d a2e1 ac3c
000000b0: 8062 323d 69cc babd a0c7 79be c3f8 cdbc
000000c0: 897e d33d d214 c0bc 7634 50bd a7d4 9dbc
000000d0: 54b7 f9bc a1a8 2c3d 24ec e6bd 78e4 d03d
000000e0: 1340 0a3e 37c8 c8bb 72a6 0c3e 25dd 3b3e
000000f0: def1 8dbc 9cf1 ea3d 505c 093e 4497 ed3d
00000100: a674 863d 35c5 f3bd 3c0a 893d d779 2c3d
00000110: 8853 5e3d 98b4 4c3d d104 7d3d 23d3 973d
00000120: 3998 1b3d 26ba 123e 6dcc 973c 9dbb 2b3c
00000130: c6c3 873b b215 833c 4007 aebe 06b9 973c
00000140: a09e 0b3e 7d2d c0bd d90f a33b 1981 7bbe
00000150: c03e 283b 9f33 69be 71b9 b23d 6b26 3d3d
00000160: f434 7a3c 0060 28bd 1d23 0d3d 0f0f 063d
00000170: f1c4 ff3d 3c29 17bd 8d20 813d 3493 e3be
00000180: 649e a63a 4461 423e 6f64 86bd 6b7e 083e
00000190: 5233 82bb cf1a ffbc 41a3 283d 0d5a fbbd
000001a0: 31b3 c13d e9ee 523e 24d7 5b3d 6011 fdbe
000001b0: 9df4 d0ba 4ec9 2abe 4b04 f9bc f11f 9abd
000001c0: 460d 153e 67be bbbc 1d2e 0c3e 0326 193e
000001d0: 4d20 a4bc 07ae d53d 27c6 13bd e343 be3d
000001e0: 1e13 e63c beb8 32bc 7cb3 013e f8c2 4f3c
000001f0: c94c cf3d da11 2c3d 6445 043d afd2 7bbe
00000200: 45a0 3bbd 1367 63be 8d37 08be 02a6 20be
00000210: bc7c a33d db9d 00be d340 ef3b 8267 4e3d
00000220: a4e2 4e3d b3f3 02bd b092 2cbc d6ac 2b3d
00000230: 4cce c9bd 9976 d23d c3a1 65bd ff71 d43c
00000240: 69c5 9e3d 5e71 4d3d 3018 5fbd 3801 633d
00000250: 0c25 4a3d 5531 0f3a 5b38 913d 4a6a ccbc
00000260: fd80 e0be 0bc4 a43d 6070 a6bc cecd 37be
00000270: 2ad0 7f3b d543 efbd 419f 5e3c 99a6 0abd
00000280: 5822 b73c 15a3 0cbe 748b 4fbe 1885 2f3e
00000290: 9e5f fabd 344a 99bc 1704 a0bd 1ddf f23c
000002a0: b49c b6bd 663f 673c 9b8c 863d 292b 6dbd
000002b0: bade ab3c f3f6 8abe d008 8a3d 8031 35be
000002c0: 48a1 3b3c a7cb 33bd c7d9 943d 24e8 ecbd
000002d0: 5c29 fe3c 820e 103d 64ea 55bd 4064 083e
000002e0: 709f 433b 3799 cebc 37f1 5ebd 4546 93be
000002f0: 595a f53d 2599 20be e5cc f8bc 5938 a0be
00000300: 992f ce3d 5fbf 95bc a6a5 1fbe 428e bd3d
00000310: 342c 223d 0d1d 893d 34f6 4bbb cfb3 9c3d
00000320: 32a8 a23c 799d fc3c 6ac4 12be 7acf 733d
00000330: 96b2 cbbc 46d4 dabd b807 473d cf66 1dbd
00000340: 0b75 31bd 8777 d73d 0c03 25be 9247 b43d
00000350: 7192 85bd 88b4 cd3b d239 1c3d 4a1f bf3d
00000360: 999d e73c 2d82 8ebd c6b0 41be 7c38 a9bd
00000370: 72e9 ddbd c4de 1abd 6aa2 92bd a1f7 013c
00000380: f911 24bd 2bbb 9f3d e1fd 8b3d 9549 57bd
00000390: df64 253d f4bd d33d 50da 84be 6f29 073e
000003a0: 74f3 09be 935d 83bc 5a3e e8bd 2718 f23b
000003b0: ce17 a23c a0af d7bc ccbd d93d 2af1 2f3d
000003c0: c638 10be 702f 583d 2512 2b3e 343b 413d
000003d0: 8178 013e 525c cfbb 66e8 95bc 87be 3dbd
000003e0: 9db3 f3bc fc53 c13c 7e93 85bd 34ee 783c
000003f0: b479 f3bd 745e 193d 7307 6fbd 18ab 8cbd

weight f4 [100]
1.1967572 1.1487106 0.9465245 0.96344674 0.8922186 0.9750775 1.1460569 1.0998735
0.96431655 0.9651865 1.0040221 0.9307769 0.9126085 1.0536519 0.9645043 1.0334986
1.1275207 1.2642167 1.0973502 1.0325177 0.922374 1.0883186 0.94619846 1.059409
1.0215273 1.0389082 0.97690403 1.0154393 0.8089888 0.93331313 1.1948159 1.0644963
1.1161633 1.0700258 1.4664363 1.0359898 1.0340861 1.1303931 1.0181733 1.182345
1.0975084 1.0857674 1.0577484 1.2531235 1.0066775 1.0307362 1.0844446 1.0294669
0.9416369 0.88770485 1.2516588 0.96341044 1.0547645 1.2620834 1.1879164 1.0211562
1.1155968 0.8589675 0.8920704 0.95785224 0.91464496 1.1044813 0.8462668 1.12483
0.9312237 1.2307256 0.9388875 0.9716671 1.0479058 0.83797026 1.1292179 1.0081042
1.0545746 0.9010756 0.9329011 0.9285188 1.0470065 1.2193656 1.0003779 1.1372815
1.1291913 1.0105603 0.9820318 1.1865658 1.1118615 0.986933 1.2196474 0.9812342
0.90933746 1.1848781 1.0054306 0.99779683 1.1451143 0.9883634 1.2637117 1.1466013
1.0131139 0.94839233 1.0066979 1.0468735
00000000: 572f 993f f308 933f 6e4f 723f 72a4 763f
00000010: 7068 643f ae9e 793f feb1 923f a8c8 8c3f
00000020: 73dd 763f 7616 773f cc83 803f 6547 6e3f
00000030: b6a0 693f 11de 863f c1e9 763f af49 843f
00000040: 9952 903f dad1 a13f f975 8c3f 8a29 843f
00000050: b420 6c3f 064e 8b3f 103a 723f b79a 873f
00000060: 68c1 823f f2fa 843f 6216 7a3f eaf9 813f
00000070: e419 4f3f 9ced 6e3f baef 983f 6a41 883f
00000080: 70de 8e3f 9bf6 883f 2fb4 bb3f 509b 843f
00000090: ef5c 843f b9b0 903f 8153 823f 1557 973f
000000a0: 287b 8c3f 6dfa 8a3f 4d64 873f 5a66 a03f
000000b0: cfda 803f 2aef 833f 15cf 8a3f 92c5 833f
000000c0: 1e0f 713f a040 633f 5b36 a03f 11a2 763f
000000d0: 8602 873f f38b a13f a50d 983f 3fb5 823f
000000e0: e0cb 8e3f 4be5 5b3f ba5e 643f ce35 753f
000000f0: 2c26 6a3f a55f 8d3f f1a4 583f 6efa 8f3f
00000100: ad64 6e3f 6b88 9d3f ee5a 703f 2dbf 783f
00000110: c721 863f 3885 563f 368a 903f 8f09 813f
00000120: 4dfc 863f e4ac 663f 9bd2 6e3f 68b3 6d3f
00000130: 4f04 863f 2c14 9c3f 620c 803f 7192 913f
00000140: 5789 903f 0a5a 813f 7066 7b3f 63e1 973f
00000150: 7a51 8e3f a4a7 7c3f 681d 9c3f 2a32 7b3f
00000160: 57ca 683f 16aa 973f f3b1 803f 9d6f 7f3f
00000170: 1b93 923f 6205 7d3f 4ec1 a13f d5c3 923f
00000180: b7ad 813f d7c9 723f 7adb 803f f3ff 853f

bias f4 [100]
0.20559338 0.09333861 0.1134063 0.1154775 0.09271227 -0.032445937 0.03227659 0.12925963
0.0653948 0.14652154 -0.0200947 0.101989634 0.03343302 0.14402565 0.13231684 0.02649739
0.11004038 0.16436292 0.22983648 0.0046863765 -0.10725471 -0.14814135 0.2298966 -0.11829788
-0.100921504 -0.009608677 0.12304549 0.08665967 0.23213631 0.034376614 0.13734195 0.19999957
0.091528326 -0.0076829577 0.19992486 0.07593311 0.17791106 0.21732815 -0.1548346 0.15754613
-0.13275652 0.14366497 0.1886126 0.20604149 0.11756818 -0.12889294 0.09565067 0.065987006
-0.119921416 0.15878071 0.010389062 -0.03620205 0.08075334 0.19666792 0.025379647 0.20295678
0.008456412 0.1620259 -0.10061811 0.092291094 0.13228406 0.001539014 0.17556986 0.13928632
0.02808788 0.07651844 0.095741645 0.18508221 0.19862537 0.21540004 -0.024791135 0.11791724
0.16808711 0.19225799 -0.08809176 0.16665062 -0.17263728 0.123376966 -0.06968018 0.14229937
-0.06295114 0.008633575 0.009153122 0.13164361 0.04115974 -0.00027405424 -0.103495866 -0.18788466
-0.15671006 0.1853604 0.14810397 0.15790614 -0.018952526 0.12204487 -0.015823102 -0.03129627
0.13897398 0.18940641 0.046088845 0.17498177
00000000: 1287 523e 5028 bf3d 9041 e83d 787f ec3d
00000010: eedf bd3d 08e6 04bd 7534 043d a35c 043e
00000020: b5ed 853d be09 163e a49d a4bc f1df d03d
00000030: 10f1 083d 767b 133e 117e 073e 0e11 d93c
00000040: da5c e13d c14e 283e 415a 6b3e 2d90 993b
00000050: 5ba8 dbbd 5eb2 17be 046a 6b3e 2946 f2bd
00000060: efaf cebd b66d 1dbc 46ff fb3d a07a b13d
00000070: 24b5 6d3e 7ece 0c3d 5ea3 0c3e b0cc 4c3e
00000080: 3473 bb3d 52c1 fbbb 1ab9 4c3e d282 9b3d
00000090: 512e 363e 458b 5e3e f68c 1ebe c653 213e
000000a0: 53f1 07be e91c 133e a923 413e 8afc 523e
000000b0: 96c7 f03d 83fc 03be 80e4 c33d 3224 873d
000000c0: 5c99 f5bd 6997 223e e236 2a3c 9a48 14bd
000000d0: 0262 a53d 5163 493e fae8 cf3c e7d3 4f3e
000000e0: c38c 0a3c 1eea 253e de10 cebd 1d03 bd3d
000000f0: 7975 073e beb8 c93a 96c8 333e 13a1 0e3e
00000100: 8e18 e63c b3b5 9c3d 3214 c43d 3186 3d3e
00000110: 7364 4b3e d491 5c3e c716 cbbc 987e f13d
00000120: 071f 2c3e 47df 443e 7469 b4bd 76a6 2a3e
00000130: d4c7 30be 10ad fc3d 7bb4 8ebd edb6 113e
00000140: 87ec 80bd d773 0d3c faf6 153c 95cd 063e
00000150: 1e97 283d f0ae 8fb9 a4f5 d3bd d664 40be
00000160: 9a78 20be 1ecf 3d3e 91a8 173e 26b2 213e
00000170: 5442 9bbc a9f2 f93d 739f 81bc 8530 00bd
00000180: 324f 0e3e c1f3 413e a8c7 3c3d 6c2e 333e

running_mean f4 [100]
2.3509967 1.7704588 1.8480024 1.444342 2.1979806 1.6026173 1.8419534 0.5026636
0.8431778 1.5599433 1.9417461 0.95468724 1.2310009 1.3898158 1.2431393 1.4867779
2.1018834 1.4708751 1.5251365 1.5810949 1.8577098 1.8528668 1.5430299 1.333524
1.4055231 1.2695355 1.4435083 1.4684385 1.2969803 1.5421289 2.231603 0.64630336
1.2974517 1.3157719 2.2492704 1.419527 1.545119 1.9964101 1.6377789 1.3936433
1.0389311 2.1429172 0.5412082 1.82385 1.2889199 1.4274175 1.5838273 1.3044002
1.0247406 1.3840334 1.3530905 1.404103 1.6575384 0.930786 1.3768979 1.562194
1.4112673 1.446796 1.3543727 1.71165 1.2431651 1.1629632 1.6066748 1.6193061
1.5861859 1.3400792 1.6277437 1.2851588 1.1775877 1.3643688 1.1421207 1.2899686
0.49414104 1.6495364 1.53511 1.5935117 1.4349284 1.788437 1.1083395 2.1458015
1.2965726 1.8185803 1.1552758 1.3351464 1.3046434 1.926406 0.9585672 1.0554427
2.1301243 2.4031596 2.2738616 1.5086914 1.4148896 0.88095194 1.4331025 2.0598435
1.2004851 1.4639735 2.0094953 1.1966528
00000000: bb76 1640 659e e23f 588b ec3f 33e0 b83f
00000010: b7ab 0c40 9022 cd3f 21c5 eb3f 90ae 003f
00000020: 80da 573f 39ac c73f 238b f83f 6266 743f
00000030: 7091 9d3f 7ce5 b13f 301f 9f3f bd4e be3f
00000040: 4285 0640 a345 bc3f ac37 c33f 5161 ca3f
00000050: 6fc9 ed3f bd2a ed3f 0182 c53f eab0 aa3f
00000060: 2ee8 b33f 2480 a23f e1c4 b83f cbf5 bb3f
00000070: 7303 a63f 7b64 c53f 95d2 0e40 2374 253f
00000080: e612 a63f 376b a83f 0cf4 0f40 10b3 b53f
00000090: 76c6 c53f 5e8a ff3f bda2 d13f e762 b23f
000000a0: b2fb 843f 8e25 0940 9f8c 0a3f eb73 e93f
000000b0: 54fb a43f 9eb5 b63f daba ca3f 96f6 a63f
000000c0: b32a 833f 0228 b13f 1232 ad3f a6b9 b33f
000000d0: 382a d43f fe47 6e3f 313e b03f f9f5 c73f
000000e0: 68a4 b43f 9c30 b93f 165c ad3f 5917 db3f
000000f0: 0920 9f3f fadb 943f 85a7 cd3f 6c45 cf3f
00000100: 2408 cb3f b787 ab3f e859 d03f 1580 a43f
00000110: 32bb 963f a3a3 ae3f 0331 923f b11d a53f
00000120: 0e00 fd3e 0224 d33f 7c7e c43f 31f8 cb3f
00000130: bcab b73f 81eb e43f 12de 8d3f d054 0940
00000140: 17f6 a53f 3dc7 e83f 14e0 933f 14e6 aa3f
00000150: 8efe a63f 7994 f63f a964 753f bf18 873f
00000160: f553 0840 5ecd 1940 f386 1140 cd1c c13f
00000170: 1a1b b53f 1186 613f e76f b73f 7ad4 0340
00000180: 7fa9 993f 7c63 bb3f 929b 0040 eb2b 993f

running_var f4 [100]
20.265055 12.262298 8.548233 4.9237723 9.689969 7.4758263 5.2122045 1.4976269
1.8367815 10.260363 4.526674 1.9622685 4.207851 10.074247 5.736273 2.4395273
7.611526 5.5142636 8.726201 3.1596572 10.241846 9.7919855 9.606993 5.335526
5.482378 2.734626 9.279015 4.4387283 7.2308507 3.2489665 10.655105 2.1962602
6.7313576 3.454027 29.740112 10.053372 6.088752 15.130952 6.776213 4.7357893
3.5461388 12.627644 2.1251552 18.157417 5.5615153 6.624098 6.9270825 4.885583
3.5887897 7.5905075 2.4898493 2.5960615 13.536814 3.4608738 2.3169708 10.353798
5.014226 5.734495 4.911218 11.072873 4.3210435 4.8615355 7.5966144 7.929076
8.610256 9.309845 11.144171 7.5838814 5.421927 7.0788336 1.8925056 6.902532
1.4974976 12.345329 7.165836 4.8726387 5.715971 16.270212 3.7811213 17.766449
2.009866 8.012917 5.2543015 4.308441 5.605387 9.792608 2.7437632 3.48259
9.968588 21.175364 19.119413 6.674897 2.9014623 2.9701807 2.6908777 5.298863
5.447139 8.04063 4.266177 6.650847
00000000: d51e a241 5f32 4441 90c5 0841 8b8f 9d40
00000010: 1d0a 1b41 f839 ef40 61ca a640 3db2 bf3f
00000020: a81b eb3f 722a 2441 83da 9040 9d2b fb3f
00000030: b7a6 8640 1e30 2141 8c8f b740 3721 1c40
00000040: 9f91 f340 d974 b040 859e 0b41 d337 4a40
00000050: 9ade 2341 f9ab 1c41 3eb6 1941 a1bc aa40
00000060: a46f af40 1d04 2f40 d876 1441 100a 8e40
00000070: 2163 e740 11ef 4f40 4f7b 2a41 878f 0c40
00000080: 4867 d740 c70e 5d40 c0eb ed41 9dda 2041
00000090: 0ed7 c240 6118 7241 bdd6 d840 968b 9740
000000a0: f0f3 6240 d40a 4a41 8b02 0840 6442 9141
000000b0: eff7 b140 9cf8 d340 a9aa dd40 b256 9c40
000000c0: bbae 6540 70e5 f240 b159 1f40 df25 2640
000000d0: ca96 5841 f57e 5d40 4049 1440 28a9 2541
000000e0: 8a74 a040 fc80 b740 b328 9d40 7d2a 3141
000000f0: fd45 8a40 b391 9b40 7717 f340 feba fd40
00000100: 9cc3 0941 20f5 1441 864e 3241 28af f240
00000110: 6d80 ad40 ce85 e240 a03d f23f 8be1 dc40
00000120: 00ae bf3f 7886 4541 874e e540 a8ec 9b40
00000130: 3ce9 b640 6529 8241 e4fd 7140 b021 8e41
00000140: a5a1 0040 e834 0041 3d23 a840 c0de 8940
00000150: 555f b340 86ae 1c41 d199 2f40 c1e2 5e40
00000160: 567f 1f41 2567 a941 8ff4 9841 c298 d540
00000170: 8fb1 3940 7117 3e40 5737 2c40 4990 a940
00000180: f64e ae40 6ca6 0041 8684 8840 bdd3 d440

weight f4 [4, 100]
0.024030766 0.016504854 -0.15794921 0.0838261 0.120325364 -0.1389019 0.18166947 0.17890324
-0.17829275 -0.0025246544 0.15442406 -0.21250981 -0.12719496 -0.0715247 -0.09323489 -0.18002321
-0.23770282 0.115495786 0.03553973 0.18030529 -0.112879224 -0.13930686 0.00995281 -0.05376742
-0.08289568 0.16751386 -0.084351845 0.15583035 -0.044986464 -0.259739 -0.31197268 0.08953198
0.029011568 0.19162247 -0.0010502243 -0.02251001 0.14358528 -0.10868806 -0.03670844 0.17767909
0.035538174 0.20720567 0.027481724 -0.0070186234 0.09064004 -0.093924 0.18924312 0.15417346
0.045788333 0.023601083 0.19050509 0.12347915 -0.12889469 0.17730522 0.16932842 0.16486727
0.089635916 -0.080461234 -0.046412263 -0.006998711 0.18794993 -0.0952564 -0.14998393 0.09191716
-0.0046634567 -0.10566005 0.016847158 -0.042157687 -0.054189783 -0.07767026 0.16635649 -0.067817725
-0.09243511 0.11602921 -0.10685086 -0.17557551 -0.07696074 -0.08928801 0.035171255 -0.097763576
0.17555442 -0.16479483 0.0153192775 0.16366121 -0.0037312824 -0.13338876 0.13260402 -0.02366217
-0.083331265 0.051387317 -0.016130796 -0.13866733 0.226493 0.0546839 0.2005251 0.09191541
0.078460544 0.10600891 -0.1592081 0.031773 -0.12538029 -0.26880595 0.117485486 -0.11739724
-0.045750678 0.0755787 -0.19779271 0.13590245 0.11292315 -0.07563014 -0.16151923 0.12087411
0.10064291 0.13986044 0.04073727 0.16417094 0.14945458 0.0535269 -0.13755798 -0.14695999
-0.08043879 -0.055739287 -0.041038502 -0.08916957 -0.1615493 -0.13317713 0.14006726 -0.12263452
-0.026311725 0.12110864 0.12600651 0.14044656 -0.18729135 -0.109498926 0.4046457 0.20549878
0.10292372 -0.16305134 -0.124634236 0.05316364 -0.14822544 -0.018422032 0.2036065 0.28693572
-0.10120008 -0.021311754 -0.06696245 -0.0748121 -0.074295886 -0.014935953 -0.16765885 -0.14838372
0.12449615 0.1938523 -0.19319949 -0.08022559 -0.16275035 -0.040610045 -0.007722429 -0.10949336
-0.0381796 0.06111341 0.044587504 -0.016698344 -0.061823435 0.22841014 -0.06967818 0.16893534
-0.08948893 -0.012103002 -0.18074962 -0.12840505 0.26312083 -0.005556903 0.045192655 0.074211836
-0.13921423 0.24825162 -0.15720977 -0.19488502 -0.24433793 0.10705569 0.077971295 0.05206771
0.16215983 0.10167135 -0.227103 -0.16816562 0.042417917 -0.099025264 -0.10520668 0.07565333
-0.0914205 0.08219205 -0.20462695 -0.19578 -0.08527944 -0.13664694 0.14839533 0.16256924
-0.052763093 -0.048377667 -0.04239823 0.029517086 0.09155763 0.110954314 0.16417724 -0.3060759
-0.12787987 0.0010372179 0.13713777 -0.09827241 -0.028555147 0.042929195 -0.17226925 -0.15641168
0.13459206 -0.098012656 -0.059270423 0.18874986 0.08018462 0.15472746 0.021715563 0.201703
0.17430906 0.10817069 0.07986779 0.1486182 -0.0708503 -0.04753629 0.14443812 -0.036460582
0.09000319 0.1840655 -0.023975365 0.04398647 -0.23515776 -0.0846589 0.06798338 -0.3523847
0.21282357 -0.12534504 0.046288528 -0.07739281 0.039149612 0.18986484 -0.09716202 0.13998495
0.1510297 0.0064036134 0.17235754 0.14660458 0.010730264 0.0022760243 0.16802846 0.00019934762
00000000: 2bdc c43c 3035 873c 70bd 21be 05ad ab3d
00000010: 256d f63d 4d3c 0ebe 9007 3a3e 6932 373e
00000020: 6092 36be ac74 25bb 5721 1e3e 2c9c 59be
00000030: 653f 02be 8b7b 92bd eff1 bebd 0158 38be
00000040: 5e68 73be 0e89 ec3d 1c92 113d f3a1 383e
00000050: 392d e7bd 75a6 0ebe 1c11 233c 3a3b 5cbd
00000060: 36c5 a9bd c188 2b3e a9c0 acbd fe91 1f3e
00000070: ba43 38bd 83fc 84be e2ba 9fbe 8b5c b73d
00000080: aba9 ed3c ae38 443e aea7 89ba ea66 b8bc
00000090: 0508 133e d897 debd 975b 16bd 82f1 353e
000000a0: 7a90 113d b92d 543e 5a21 e13c 7bfc e5bb
000000b0: 7ca1 b93d 3a5b c0bd f3c8 413e a6df 1d3e
000000c0: 8c8c 3b3d 0f57 c13c c413 433e a3e2 fc3d
000000d0: f8fc 03be 808f 353e 6e64 2d3e f7d2 283e
000000e0: 0993 b73d dcc8 a4bd c91a 3ebd 7155 e5bb
000000f0: f275 403e ca15 c3bd 6395 19be 103f bc3d
00000100: e9cf 98bb 4c64 d8bd 0d03 8a3c 8aad 2cbd
00000110: 1bf6 5dbd 9611 9fbd 5b59 2a3e 05e4 8abd
00000120: 9e4e bdbd b9a0 ed3d a0d4 dabd 11ca 33be
00000130: 989d 9dbd a2dc b6bd bc0f 103d 4538 c8bd
00000140: 8ac4 333e fabf 28be b5fd 7a3c ce96 273e
00000150: 8888 74bb 1097 08be 59c9 073e 2bd7 c1bc
00000160: 95a9 aabd 827b 523d bb24 84bc cffe 0dbe
00000170: c8ed 673e 3afc 5f3d 7456 4d3e 253e bc3d
00000180: ecaf a03d 331b d93d 7307 23be 6824 023d
00000190: b163 00be efa0 89be 3b9c f03d f76d f0bd
000001a0: 1065 3bbd 01c9 9a3d 2c8a 4abe 032a 0b3e
000001b0: 4144 e73d fae3 9abd 4c65 25be d88c f73d
000001c0: df1d ce3d 9337 0f3e 20dc 263d 6d1c 283e
000001d0: 9f0a 193e 063f 5b3d 00dc 0cbe ae7c 16be
000001e0: 18bd a4bd e14e 64bd fd17 28bd 899e b6bd
000001f0: 2e6d 25be 965f 08be cb6d 0f3e cf27 fbbd
00000200: b08b d7bc cf07 f83d da07 013e 39d1 0f3e
00000210: 4ec9 3fbe f940 e0bd b92d cf3e 466e 523e
00000220: acc9 d23d eef6 26be 3c40 ffbd 1ec2 593d
00000230: 69c8 17be cde9 96bc 397e 503e 3de9 923e
00000240: fd41 cfbd fd95 aebc 9c23 89bd 1637 99bd
00000250: 7128 98bd edb5 74bc c3ae 2bbe e7f1 17be
00000260: d6f7 fe3d 3881 463e 16d6 45be 504d a4bd
00000270: 07a8 26be b856 26bd 6e0c fdbb 0e3e e0bd
00000280: 3662 1cbd 0e52 7a3d 63a1 363d f7ca 88bc
00000290: 923a 7dbd 59e4 693e 6fb3 8ebd 63fd 2c3e
000002a0: f945 b7bd ab4b 46bc 6e16 39be 9d7c 03be
000002b0: c6b7 863e ae16 b6bb ef1b 393d 60fc 973d
000002c0: 2d8e 0ebe ac35 7e3e 99fb 20be f08f 47be
000002d0: b933 7abe 0340 db3d 6aaf 9f3d f344 553d
000002e0: 3a0d 263e 1239 d03d b08d 68be 9c33 2cbe
000002f0: 69be 2d3d c2cd cabd 9a76 d7bd 22f0 9a3d
00000300: ac3a bbbd 4e54 a83d ba89 51be 8d7a 48be
00000310: fda6 aebd 2ded 0bbe f2f4 173e 8d78 263e
00000320: 1d1e 58bd a927 46bd c4a9 2dbd d1cd f13c
00000330: 9182 bb3d 043c e33d 141e 283e fbb5 9cbe
00000340: f1f2 02be 42f3 873a d86d 0c3e 0c43 c9bd
00000350: 7cec e9bc 86d6 2f3d 5a67 30be 622a 20be
00000360: 80d2 093e dcba c8bd 8bc5 72bd a547 413e
00000370: d637 a43d e070 1e3e d6e4 b13c 3b8b 4e3e
00000380: 137e 323e 9888 dd3d b991 a33d 5f2f 183e
00000390: f619 91bd 6ab5 42bd 96e7 133e b157 15bd
000003a0: 9853 b83d ab7b 3c3e fc67 c4bc 282b 343d
000003b0: 32cd 70be a561 adbd df3a 8b3d c46b b4be
000003c0: 6cee 593e 735a 00be 0a99 3d3d 1f80 9ebd
000003d0: 585b 203d ee6b 423e e2fc c6bd 3758 0f3e
000003e0: 88a7 1a3e 67d5 d13b 7f7e 303e 831f 163e
000003f0: fdcd 2f3c 5a29 153b a70f 2c3e f807 5139

bias f4 [4]
0.08934043 0.028296156 -0.18908955 0.09973313
00000000: 1ef8 b63d 57cd e73c b1a0 41be e240 cc3d
